Temp Folder/Weights_only/model_params.pt (torch, 73943 bytes, 6 tensors)

fc1.weight f4 [128, 50]
0	0xbd3c8fbf	-0.046035524
1	0x3e951742	0.29119307
2	0x3e30aefc	0.17254251
3	0x3eb82b2f	0.35970446
4	0xbd3c8ce1	-0.04603279
5	0xbd81fe1b	-0.06347295
6	0xbe98564d	-0.29753342
7	0x3db1abb5	0.08675329
8	0x3d22d969	0.03975812
9	0xbad34dba	-0.0016121187
10	0xbdc03384	-0.09384826
11	0xbd129bba	-0.035793044
12	0x3e51ed36	0.20500645
13	0x3ee05d32	0.43821102
14	0xbe662cf1	-0.22478081
15	0x3c79ef89	0.015254864
16	0x3ebb4852	0.36578614
17	0x3d8d72fd	0.06906698
18	0x3f46508c	0.77466655
19	0x3d9e985c	0.07743904
20	0x3e888e85	0.26671234
21	0xbc88d2aa	-0.016702015
22	0xbd7369e3	-0.059427153
23	0x3def0f71	0.11672867
24	0x3e177c0d	0.14793415
25	0x3b625207	0.0034533755
26	0xbe3dea13	-0.18546323
27	0xbe8fe97f	-0.2810783
28	0x3daa7e70	0.08324897
29	0x3e9f1c09	0.31076077
30	0xbca2ddb1	-0.019881101
31	0x3dbb2f55	0.09139887
32	0x3c62a449	0.013833114
33	0x3e055f5c	0.13024658
34	0x3e8c1512	0.27359825
35	0xbc8a8fd5	-0.016914288
36	0x38208952	3.8274862e-05
37	0x3df69710	0.12040532
38	0x3d7f74f1	0.062367383
39	0x3d8289fd	0.063739754
40	0xbd3ef41e	-0.046619527
41	0xbcd4a323	-0.025956696
42	0x3da9dbfb	0.08293911
43	0x3c7ebbaf	0.015547677
44	0x3de18627	0.11011916
45	0xbf46bb20	-0.7762928
46	0x3e8c680c	0.2742313
47	0x3dfea730	0.12434232
48	0xbeb0877c	-0.34478366
49	0x3e0c1401	0.13679506
50	0xbcf3debf	-0.0297693
51	0x3d58c94f	0.052926358
52	0xbd801c53	-0.062554024
53	0xbe73efbd	-0.23821922
54	0x3d80886e	0.06276022
55	0x3dbf7ef1	0.09350384
56	0x3d840dc6	0.064479396
57	0xbe0af1d8	-0.13568819
58	0xbd316a66	-0.04331436
59	0xbd53d3a6	-0.051715516
60	0x3e607302	0.21918872
61	0x3e2e6dae	0.17034027
62	0xbe1ac9ca	-0.15116039
63	0xbe2b7710	-0.16744637
64	0x3e62eda7	0.2216097
65	0x3dde8a71	0.10866249
66	0xbe156caa	-0.14592233
67	0xbe1ee734	-0.15517884
68	0x3eb27305	0.34853378
69	0xbe33fc75	-0.17576773
70	0x3d1bce3e	0.038038485
71	0x3e95e765	0.29278103
72	0x3d776cc8	0.060406476
73	0x3db8fad2	0.09032215
74	0x3cd214c5	0.02564467
75	0x3d0b6712	0.034033842
76	0x3e1f27fe	0.155426
77	0xbdc11c94	-0.09429279
78	0x3e31b998	0.17355955
79	0x3d380a70	0.04493183
80	0x3dc0ba1d	0.09410498
81	0x3d6673b1	0.056262676
82	0x3c3beb4e	0.011469675
83	0x3d86feda	0.06591578
84	0x3dbbe5ec	0.091747135
85	0xbd482646	-0.048864625
86	0x39b87e83	0.00035189473
87	0x3d8b1fee	0.067931995
88	0x3d5e56a5	0.05428185
89	0xbd7128ab	-0.058876675
90	0xbe12943c	-0.1431436
91	0x3db0a186	0.08624558
92	0x3dc280e1	0.09497238
93	0xbe124716	-0.1428493
94	0x3def9494	0.11698261
95	0xbdc75111	-0.09732259
96	0x3e71131f	0.2354245
97	0x3e16a270	0.14710402
98	0x3d9e53f6	0.07730858
99	0xbda11c09	-0.078666754
100	0x3dc09563	0.09403493
101	0x3e4f7b19	0.20261802
102	0xbde218ee	-0.11039911
103	0xbe9142af	-0.28371188
104	0xbd006906	-0.03135016
105	0x3d8875fa	0.06663127
106	0xbd1ae4c5	-0.037815828
107	0x3d902b8c	0.07039556
108	0xbe6bb9de	-0.23020121
109	0xbc5a7ae0	-0.01333496
110	0x3d638294	0.05554445
111	0xbdf33f76	-0.118773386
112	0x3d7f4ae1	0.06232727
113	0xbd856aae	-0.06514488
114	0x3dc199d8	0.094531715
115	0x3c30a3ef	0.010781272
116	0x3c9efbed	0.019407237
117	0x3e253bd2	0.16136101
118	0x3e1def19	0.1542324
119	0x3df1f21a	0.11813755
120	0x3e290ed3	0.16509561
121	0x3c10bc13	0.008833903
122	0x3cb6698f	0.022267131
123	0x3d83cdb0	0.06435716
124	0xbbbedfcf	-0.00582502
125	0x3db59a51	0.08867324
126	0x3e4b583d	0.19857879
127	0x3d02141c	0.03175746
128	0x3e128dea	0.14311948
129	0x3b3b8259	0.0028611629
130	0x3e917e0f	0.28416488
131	0x3d1dc710	0.03851992
132	0x3e255574	0.16145879
133	0xbde7bad1	-0.11314929
134	0x3e934bf5	0.28768888
135	0x3d9410d2	0.07229771
136	0x3e0a6733	0.1351593
137	0x3cc8f93d	0.024532909
138	0xbb0422b2	-0.0020162282
139	0x3d96704e	0.07345639
140	0x3da49cdb	0.0803773
141	0x3df419cc	0.11918983
142	0xbe8f70f3	-0.2801586
143	0x3e125e6f	0.14293836
144	0xbdd4fa71	-0.103993304
145	0x3ebf5584	0.3736993
146	0xbda7eb1a	-0.08199139
147	0x3cac1b80	0.021009207
148	0x3cef0e61	0.029181661
149	0xbdb61138	-0.08890003
150	0xbe10517f	-0.14093588
151	0xbd2d5ae8	-0.042323023
152	0xbdead712	-0.11466803
153	0xbdc659da	-0.096851066
154	0xbaa6f365	-0.0012737332
155	0xbd91f15a	-0.07126112
156	0xbd637bca	-0.055537976
157	0xbdc6f6a6	-0.09715013
158	0x3de6eaa3	0.11275222
159	0xbdc93c11	-0.0982591
160	0x3d69adc1	0.05705047
161	0xbcc86f38	-0.024467096
162	0xbd5f9797	-0.054587927
163	0x3c9d3b49	0.019193308
164	0xbd33a4a9	-0.043858204
165	0xbdb03c9d	-0.08605311
166	0x3d4f09b2	0.050546356
167	0xbe0f8a26	-0.14017543
168	0x3dd410da	0.10354777
169	0xbd1fec59	-0.039043758
170	0xbdbbba5b	-0.09166404
171	0xbd83ae96	-0.06429784
172	0x3cb9ca0e	0.022679355
173	0xbe12e7ed	-0.14346285
174	0x3dcc115c	0.099642485
175	0xbdc974fb	-0.098367654
176	0xbd10dcc1	-0.035366777
177	0xbd5f43c5	-0.05450799
178	0x3d45324f	0.04814368
179	0x3ddaa64a	0.10676248
180	0x3dc7adee	0.09749971
181	0x3c070a87	0.008242256
182	0x3da67db3	0.08129444
183	0x3ddd64d0	0.10810244
184	0x3d424867	0.04743233
185	0xbdefb851	-0.117050774
186	0xbd2fb038	-0.042892665
187	0xbcd2f902	-0.025753502
188	0xbd96a58d	-0.07355795
189	0xbdd52247	-0.104069285
190	0x3d736788	0.059424907
191	0x3dc2b763	0.095076345
192	0xbc49a58a	-0.012307534
193	0x3a24ba83	0.0006283896
194	0xbcfd070b	-0.030887147
195	0xbe139d22	-0.1441541
196	0x3c354941	0.011064828
197	0xbd612559	-0.054967258
198	0x3d93f5cd	0.07224617
199	0xbdd9c53c	-0.106333226
200	0xbcf3299e	-0.02968293
201	0x3da04f51	0.078276284
202	0x3d24c739	0.040229056
203	0x3b10a18e	0.002206895
204	0xbd35fee6	-0.044432543
205	0x3dcfeeeb	0.10152992
206	0xbe8143eb	-0.2524713
207	0x3da6f854	0.081528336
208	0x3e07097e	0.13187215
209	0xbc83beb1	-0.01608214
210	0x3d2abba9	0.041682873
211	0x3e364f9a	0.17803803
212	0xbdc4b145	-0.09604124
213	0x3dad01de	0.08447622
214	0xbd1ecb07	-0.03876784
215	0xbdae1cde	-0.085016
216	0xbc9f89a4	-0.019474812
217	0xbdce2c1e	-0.100670084
218	0xbdce1ca5	-0.10064057
219	0xbd5a8125	-0.053345818
220	0x3e6942d3	0.22779398
221	0x3e144bcb	0.14482038
222	0xbda94f6f	-0.08267104
223	0xbd89b646	-0.06724219
224	0xbda45359	-0.0802371
225	0xbe40eb2e	-0.18839714
226	0x3c8698d6	0.0164303
227	0x3e0ebd23	0.13939337
228	0x3e57a7ef	0.21060155
229	0xbe98eacf	-0.29866645
230	0xbdbfec37	-0.09371226
231	0x3dcfd475	0.10147945
232	0xbd80e213	-0.0629312
233	0xbe15defd	-0.14635845
234	0xbd093e0f	-0.03350645
235	0x3c321f9d	0.010871795
236	0xbe13c592	-0.14430836
237	0xbd8d3697	-0.06895178
238	0x3e07366e	0.13204357
239	0xbdc3754a	-0.095438555
240	0xbe1985d2	-0.14992455
241	0xbdd20170	-0.102541804
242	0x3e3f07fd	0.18655391
243	0x3b154bfe	0.002278089
244	0x3dd6ced8	0.10488671
245	0x3d1f42dd	0.038882125
246	0xbeaa2430	-0.33230734
247	0x3bb4a321	0.0055126105
248	0x3c826c50	0.015920788
249	0x3cebd3d3	0.02878753
250	0xbd1871ff	-0.03721809
251	0xbdafdd94	-0.085871845
252	0x3dac27c0	0.08406019
253	0xbe5b1083	-0.21393017
254	0x3e1948fe	0.1496925
255	0xbdb56948	-0.088579714

fc1.bias f4 [128]
0	0xbe9ad99c	-0.30244148
1	0xbe84b9de	-0.25923055
2	0xbec9092a	-0.39264804
3	0xbd8cf0d5	-0.068818726
4	0x3ee3fe82	0.44530112
5	0x3e5717d0	0.21005177
6	0x3ef1bee1	0.47215942
7	0xbe9260aa	-0.28589374
8	0xbe35ea4e	-0.17765161
9	0x3e840f41	0.25792888
10	0xbe6068f6	-0.2191504
11	0x3edb3f03	0.42821512
12	0xbeaf8a02	-0.3428498
13	0xbde871c9	-0.11349828
14	0x3e0c67e0	0.137115
15	0xbcd870a4	-0.026420899
16	0x3eb85e50	0.36009455
17	0x3ecfc871	0.40582612
18	0x3ea1561b	0.31511006
19	0xbe65bada	-0.2243456
20	0xbeb33a16	-0.35005254
21	0x3e4cd4c9	0.20003046
22	0xbe3d565f	-0.18489979
23	0x3e393337	0.18085943
24	0x3efbde40	0.49193
25	0xbe743f93	-0.23852377
26	0x3ec54894	0.38531935
27	0xbe883a0b	-0.26606783
28	0x3e82ffad	0.2558569
29	0xbeada248	-0.33912873
30	0x3e8fa90f	0.2805867
31	0x3eabeadf	0.3357763
32	0xbeb30d28	-0.34970975
33	0xbe25a7e5	-0.16177328
34	0xbe767388	-0.24067509
35	0x3dd75f63	0.105162404
36	0x3ef8221c	0.48463523
37	0xbebcc2aa	-0.36867267
38	0xbd82da9c	-0.06389353
39	0xbebb10d5	-0.3653628
40	0x3ee06469	0.43826607
41	0x3e8bb19c	0.27283943
42	0x3daa2b80	0.08309078
43	0xbe7641a9	-0.24048485
44	0x3d829a57	0.06377094
45	0xbe22ff60	-0.1591773
46	0x3eea26c7	0.4573271
47	0x3eecb55e	0.46232122
48	0x3ee29e35	0.44261327
49	0x3e8b4576	0.27201432
50	0x3e595f5b	0.21227781
51	0x3e7c2dc2	0.2462683
52	0xbece12d3	-0.40248737
53	0xbea03e56	-0.3129756
54	0x3ea6fa5a	0.32612878
55	0xbd1f2478	-0.03885314
56	0xbe9d14ea	-0.3068002
57	0xbe92800d	-0.2861332
58	0xbd9b9656	-0.07597034
59	0xbeda04aa	-0.42581683
60	0x3ec68392	0.38772255
61	0x3ed6e69a	0.4197281
62	0xbe71b928	-0.23605788
63	0xbedae3d4	-0.42751944
64	0x3e9af790	0.30267
65	0xbdbf2460	-0.0933311
66	0x3e88a9a2	0.2669192
67	0x3ee611ee	0.44935554
68	0x3f03b860	0.5145321
69	0x3ed46074	0.41479838
70	0x3e79a3bc	0.24378866
71	0x3e8ab10b	0.27088198
72	0xbec5c3c1	-0.3862591
73	0xbe13865c	-0.14406723
74	0x3ec88ec0	0.3917141
75	0x3eeee6be	0.46660417
76	0xbe0f04ca	-0.1396667
77	0x3e009160	0.12555456
78	0xbea794ce	-0.32730716
79	0xbecfdb83	-0.40597162
80	0x3e3abdc2	0.1823645
81	0xbed04269	-0.40675667
82	0xbeb9564b	-0.3619865
83	0xbec0f3af	-0.37685916
84	0xbe68a522	-0.22719243
85	0x3ee9c936	0.45661324
86	0xbe904175	-0.2817494
87	0x3ebe7368	0.37197423
88	0xbeac639e	-0.33669752
89	0xbe8927ae	-0.26788086
90	0x3dcbb4b5	0.099465765
91	0x3e871b86	0.26388186
92	0xbda38e09	-0.079860754
93	0x3ee8c905	0.45465866
94	0x3effd010	0.49963427
95	0xbeed9809	-0.46405056
96	0x3eef778f	0.46770903
97	0xbe144834	-0.14480668
98	0x3e024ed2	0.1272538
99	0xbe565deb	-0.20934264
100	0x3c4bcf92	0.012439625
101	0xbe34a0d2	-0.17639473
102	0xbe777b1f	-0.2416806
103	0x3da12e9f	0.078702204
104	0xbe02c71d	-0.12771268
105	0x3e8d281d	0.27569667
106	0x3eb2738d	0.34853783
107	0x3f02937f	0.5100631
108	0x3ecfa150	0.4055276
109	0xbe1b0045	-0.15136822
110	0x3e8f26db	0.27959332
111	0xbed7021a	-0.4199379
112	0xbeb836dc	-0.35979354
113	0xbe86d2f2	-0.26332814
114	0x3ef75b77	0.4831197
115	0xbdf053b9	-0.11734719
116	0x3e53a99f	0.20670174
117	0xbe2d0523	-0.16896491
118	0x3ed73d80	0.42039108
119	0xbdecefb2	-0.11569156
120	0x3efed68e	0.49773067
121	0xbe804cc3	-0.25058565
122	0x3e8ff36c	0.28115404
123	0x3ebbb9f9	0.36665323
124	0xbe6b1770	-0.2295816
125	0xbed30648	-0.4121573
126	0xbedff35c	-0.43740356
127	0xbcc3202d	-0.023819054

fc2.weight f4 [64, 128]
0	0xbe646bae	-0.22306702
1	0x3e28b199	0.16473998
2	0x3e9e5f4e	0.30932087
3	0x3b55537f	0.0032550988
4	0xbea0e330	-0.3142333
5	0x3e5f9c92	0.2183707
6	0xbcee69d9	-0.029103206
7	0x3d8c8d20	0.06862855
8	0x3e8cd6fc	0.2750777
9	0xbdf9e06d	-0.12201009
10	0xbe1a80a6	-0.15088138
11	0x3e39e567	0.18153916
12	0x3cf17fda	0.02947991
13	0xbda16ac1	-0.0788169
14	0x3d9766e7	0.07392674
15	0x3d230ff0	0.03981012
16	0xbe4007da	-0.18752995
17	0x3cd8ce77	0.026465638
18	0x3d00c0a1	0.031433705
19	0xbdcf17f8	-0.101119936
20	0x3dacbbff	0.08434295
21	0xbea91f4b	-0.33031687
22	0x3db8e7f6	0.09028618
23	0x3e44d96d	0.19223566
24	0xbe665470	-0.22493148
25	0x3d0d6061	0.034515742
26	0xbe1feb1b	-0.1561703
27	0x3c483706	0.01222015
28	0x3dbe6830	0.09297216
29	0x3d3de21b	0.04635821
30	0xbe816b5d	-0.25277224
31	0xbdebce00	-0.11513901
32	0xbd83050d	-0.06397448
33	0x3ec1a1ae	0.37818664
34	0x3e1b7949	0.15182985
35	0xbe3997de	-0.18124339
36	0x3e938626	0.28813285
37	0x3d87128f	0.06595337
38	0x3da11f31	0.078672774
39	0x3cd595ab	0.026072344
40	0xbd86f402	-0.065895095
41	0xbdf02dbb	-0.117274724
42	0xbd644706	-0.055731796
43	0x3e0c1c5e	0.13682696
44	0xbe7c4099	-0.24634017
45	0x3ca5600b	0.020187398
46	0x3d6952df	0.056963798
47	0xbe98c423	-0.2983714
48	0xbda9dba5	-0.08293847
49	0x3e51283a	0.20425501
50	0x3e80b1c3	0.2513562
51	0xbe3b4b24	-0.18290383
52	0x3ea8836e	0.32912773
53	0x3e15ec60	0.14640951
54	0xbe03b254	-0.12860996
55	0xbd31929f	-0.04335272
56	0x3e63ca93	0.22245245
57	0x3d66325d	0.056200374
58	0xbd071549	-0.032979283
59	0xbcce8c74	-0.025213458
60	0xbb31066e	-0.002701189
61	0xbe2601b1	-0.16211583
62	0xbcda0a9b	-0.026616385
63	0x3c99ba3c	0.018765561
64	0xbc775d67	-0.015097952
65	0xbbfde4a2	-0.0077482024
66	0xbe54185f	-0.20712422
67	0x3dc07b47	0.09398513
68	0xbde7d823	-0.11320522
69	0xbe94d593	-0.29069194
70	0xbd198f48	-0.03749016
71	0x3e85e07b	0.26147828
72	0x3eb631d2	0.35584885
73	0xbd887dc3	-0.06664612
74	0xbdef2937	-0.11677783
75	0xbdcca266	-0.099919125
76	0x3e17770f	0.14791511
77	0x3cb430e3	0.021995967
78	0x3df26467	0.118355565
79	0x3defd54e	0.117106065
80	0xbd117d0e	-0.035519652
81	0x3b9478e9	0.004531015
82	0x3e550753	0.20803575
83	0xbcccbe41	-0.024993064
84	0xbc69b422	-0.014264138
85	0xbea1d3bf	-0.31606862
86	0x3e12cc3a	0.14335719
87	0xbede533f	-0.43422887
88	0x3da31d58	0.07964581
89	0x3d31803d	0.04333519
90	0x3e1f238f	0.15540908
91	0x3eca9c2c	0.39572275
92	0x3d2cc40f	0.042179164
93	0x3cb0e26e	0.021592345
94	0xbe096278	-0.13416469
95	0xbcca1b5f	-0.024671255
96	0xbea702a0	-0.3261919
97	0x3e031218	0.12799871
98	0xbd5c29f9	-0.053750966
99	0xbcc2cf82	-0.023780588
100	0x3ce3199b	0.02772217
101	0x3dbef25e	0.093235716
102	0x3dec05f3	0.11524572
103	0x3e6544d7	0.22389542
104	0xbe29d33f	-0.1658449
105	0xbd98a939	-0.07454152
106	0x3e273a4e	0.16330835
107	0xbe298cec	-0.16557664
108	0xbdb6180f	-0.088913076
109	0x3d9d2a56	0.076740906
110	0xbe187d7f	-0.14891623
111	0xbe2265a8	-0.15859091
112	0x3d9e7423	0.07736995
113	0x3e6b4030	0.22973704
114	0xbe45d024	-0.1931768
115	0x3e45c676	0.19313988
116	0xbe52ad09	-0.2057382
117	0xbd6aadfc	-0.05729483
118	0x3e978262	0.29591662
119	0xbe3001de	-0.17188212
120	0xbd093823	-0.0335008
121	0x3e917c9a	0.28415376
122	0xbdd18800	-0.10231018
123	0x3d213aeb	0.03936283
124	0x3e6d3694	0.23165351
125	0x3e8dac19	0.27670363
126	0x3e31acd8	0.17351091
127	0x3d6e744d	0.05821638
128	0xbca234ff	-0.019800661
129	0xba37744f	-0.00069982273
130	0xbd5f27b3	-0.05448122
131	0xbce07f83	-0.027404552
132	0x3e2437ca	0.16036907
133	0x3dfa5c80	0.12224674
134	0x3e26069b	0.16213457
135	0xbdb38d10	-0.0876714
136	0xbcd2a67c	-0.025714152
137	0xbd8a71ba	-0.06759973
138	0xbd7bc3ac	-0.061465904
139	0xbc2c600a	-0.010520944
140	0xbe0b74ab	-0.13618724
141	0xbb9c88ba	-0.0047770413
142	0x3da31ea7	0.07964831
143	0x3dc968ea	0.09834464
144	0x3c56fbe4	0.013121579
145	0xbe16d33d	-0.14729019
146	0x3da666f1	0.08125103
147	0xbd4d644e	-0.050144486
148	0xbdebfb47	-0.11522537
149	0x3c5d3082	0.013500335
150	0x3e13b3f1	0.14424111
151	0x3e290047	0.16504012
152	0x3db6b9bd	0.089221455
153	0x3972db6c	0.0002316066
154	0xbe087bf7	-0.13328539
155	0xbdd72d82	-0.10506727
156	0x3dad15a7	0.084513955
157	0xbd20fc07	-0.039302852
158	0xbd044936	-0.032296382
159	0xbc7b01ec	-0.015320282
160	0x3b96e06a	0.004604389
161	0x3dbef035	0.093231596
162	0x3c72ba38	0.014814906
163	0xbd888797	-0.06666487
164	0x3c9058cc	0.017620467
165	0x3d7f2745	0.06229331
166	0xbbd997ca	-0.006640409
167	0x3c80d47a	0.015726317
168	0xbd8950fc	-0.067049
169	0x3dfd903a	0.12381025
170	0xbdb9d2ca	-0.09073408
171	0x3c93ae78	0.01802753
172	0x3af5d14d	0.0018754393
173	0x3dd4b320	0.10385728
174	0xbd5f4c47	-0.054516103
175	0x3d95a37a	0.07306571
176	0x3c441d24	0.011969838
177	0x3d5778d6	0.052605473
178	0xbdc75e96	-0.09734838
179	0x3d81ddd6	0.0634114
180	0x3d4153fb	0.04719923
181	0xbdb9fd2b	-0.09081491
182	0xbe06fd70	-0.13182616
183	0x3d433e89	0.04766706
184	0xbda219a1	-0.079150446
185	0xbd12fe0c	-0.03588681
186	0xbe4a6080	-0.19763374
187	0xbdc1e242	-0.094669834
188	0xbb250038	-0.0025177132
189	0xbc7eb7c9	-0.0155467475
190	0xbd9934c1	-0.07480765
191	0x3da52029	0.08062775
192	0x3dcff724	0.1015456
193	0x3d025d79	0.031827424
194	0x3d50198e	0.05080562
195	0xbe05940b	-0.13044755
196	0xbc38d607	-0.011281497
197	0x3d7b5a9a	0.0613657
198	0xbc3cdf02	-0.011527779
199	0x3d907878	0.070542276
200	0x3db732a6	0.08945207
201	0xbd9b6b6f	-0.07588851
202	0xbb20eadf	-0.0024554057
203	0x3de1f82e	0.11033665
204	0xbd8bf73c	-0.068342656
205	0xbdbf96c6	-0.093549296
206	0xbca4a630	-0.020098776
207	0x3c92489c	0.017856888
208	0x3d0297ce	0.031883053
209	0xbd89323f	-0.06699037
210	0xbdfcd886	-0.12345986
211	0xbd10be16	-0.03533753
212	0xbcd00c7d	-0.02539658
213	0x3de14084	0.109986335
214	0x3d951bd4	0.072806984
215	0xbd3b79a3	-0.0457703
216	0xbe1e082e	-0.15432808
217	0xbc67ec43	-0.01415545
218	0xbd0a9aa1	-0.033838872
219	0x3e230174	0.15918523
220	0xbdae8a62	-0.08522488
221	0xbd679f1d	-0.056548227
222	0xbc2f9eca	-0.010719011
223	0x3c9c0207	0.019043935
224	0x3d5c1876	0.053734265
225	0xbcd9e985	-0.026600609
226	0xbdb5c682	-0.08875753
227	0xbddec69b	-0.10877725
228	0xbd51b397	-0.05119666
229	0x3d6b500e	0.057449393
230	0x3d9d7c04	0.0768967
231	0xbd8054a4	-0.06266144
232	0x3cf2531f	0.02958065
233	0x3e0f947a	0.14021483
234	0xbda8b7ab	-0.08238157
235	0x3e1ef133	0.15521698
236	0xbbcb9080	-0.006212294
237	0xbd7ff7df	-0.062492248
238	0x3e030bc1	0.12797453
239	0xbdf796b8	-0.12089294
240	0xbc07d7d8	-0.008291207
241	0xbd438839	-0.047737334
242	0x3c0f2bf1	0.008738504
243	0x3dba0384	0.09082702
244	0xbce81f3f	-0.028335212
245	0x3e357678	0.17720973
246	0xbdd3b706	-0.10337643
247	0xbe52af2d	-0.20574637
248	0x3da57f6f	0.08080947
249	0xbd0d5fee	-0.034515314
250	0x3de34aef	0.11098277
251	0x3df8003e	0.12109421
252	0xbdb8b5a1	-0.09019018
253	0xbce21e7a	-0.027602423
254	0x3d10454a	0.03522233
255	0xbdce57e6	-0.10075359

fc2.bias f4 [64]
0	0xbe93f77c	-0.28899753
1	0x3d56f553	0.052480053
2	0x3e0e742b	0.13911502
3	0xbe36920f	-0.17829154
4	0xbd1e46c4	-0.038641706
5	0x3db0ebce	0.08638726
6	0x3d8ea53b	0.06965109
7	0xbe5c56de	-0.21517512
8	0xbcf3e481	-0.029772045
9	0x3cfd9427	0.030954434
10	0xbd1d6c42	-0.03843332
11	0xbe320014	-0.17382842
12	0x3d040792	0.032233782
13	0xbd2f78bc	-0.04283975
14	0x3e7a4cae	0.24443313
15	0xbe3f08d6	-0.18655714
16	0x3a5c580a	0.0008405453
17	0x3c064057	0.008194051
18	0x3e20e507	0.15712367
19	0x3e9fe790	0.31231356
20	0x3c89edde	0.016837057
21	0xbe586957	-0.21133934
22	0xbcd3deec	-0.025863133
23	0xbd992333	-0.07477417
24	0xbdcf7bb7	-0.101310186
25	0x3c2b551f	0.010457306
26	0x3ddb3542	0.107035175
27	0xbd9a57e2	-0.075362936
28	0x3dfded45	0.12398771
29	0xbca17626	-0.019709658
30	0xbe7e3e1a	-0.24828377
31	0xbd4317f3	-0.04763026
32	0x3e6d5feb	0.23181121
33	0x3e8e8e92	0.27843148
34	0xbda79e80	-0.08184528
35	0x3eb3c6f8	0.3511274
36	0x3d416a81	0.04722071
37	0x3da3f1e3	0.080051206
38	0xbe778f10	-0.24175668
39	0x3e80b477	0.25137684
40	0x3ed8147f	0.42203137
41	0xbdc7ee0d	-0.097622015
42	0x3c522656	0.012826523
43	0x3e7f85c1	0.24953367
44	0xbe25b66a	-0.16182867
45	0xbdcf4d68	-0.10122186
46	0xbdd5595c	-0.104174346
47	0x3e81bf0a	0.25341064
48	0xbe1b07a7	-0.15139638
49	0x3cd0c964	0.025486656
50	0x3e1ea02c	0.15490788
51	0x3d78f589	0.060781036
52	0xbcfd28ad	-0.030903185
53	0x3bd361e9	0.006450881
54	0xbe434a37	-0.1907128
55	0xbd8218cb	-0.06352385
56	0x3e1e6f16	0.15472063
57	0xbea1daa8	-0.31612134
58	0xbe3a98fb	-0.1822242
59	0x3d4f8d49	0.05067185
60	0x3e23f628	0.1601187
61	0x3d48221f	0.048860665
62	0x3e6d1820	0.23153734
63	0x3b67849a	0.003532684

fc3.weight f4 [50, 64]
0	0xbf269314	-0.65068173
1	0x3ed4a60f	0.41532943
2	0xbeabc975	-0.33552137
3	0xbeb1ecab	-0.34750876
4	0x3cb219a4	0.021740742
5	0x3e1d1080	0.15338326
6	0xbe0a58d2	-0.13510445
7	0x3e2bfa4b	0.16794698
8	0x3d8376ba	0.0641913
9	0xbdec5128	-0.11538917
10	0x3caac710	0.020846874
11	0xbea69285	-0.3253366
12	0xbc0decaf	-0.008662387
13	0xbe42ad59	-0.1901144
14	0xbf356426	-0.7085594
15	0x3e56ceaa	0.20977274
16	0x3d9ef408	0.07761389
17	0xbd1524be	-0.036411993
18	0x3e58a59b	0.21156923
19	0xbe981a6a	-0.29707652
20	0xbd57716f	-0.052598413
21	0xbd69422d	-0.056947876
22	0xbeb848d3	-0.3599306
23	0xbdf30308	-0.118658125
24	0xbbf37f12	-0.0074309194
25	0x3e0bb358	0.13642633
26	0x3eb08c99	0.34482267
27	0x3ecfeed7	0.40611908
28	0x3d9ccc1b	0.076561175
29	0xbd906ed9	-0.070523925
30	0xbeedc6e3	-0.464408
31	0x3d89f62a	0.06736405
32	0x3f2df85c	0.6795709
33	0x3c7b573e	0.015340624
34	0x3ee0f2a1	0.4393511
35	0x3e1e3561	0.1545005
36	0xbf0262fd	-0.50932294
37	0x3dbbcdda	0.091701224
38	0xbe49026f	-0.19629835
39	0x3e872ba6	0.2640049
40	0xbf206f68	-0.6266999
41	0x3ea26c39	0.31723192
42	0x3ccebaa2	0.025235478
43	0x3e22fd76	0.15917
44	0x3efe20ef	0.496345
45	0x3d0f8d51	0.03504688
46	0x3e4a0dca	0.19731823
47	0x3f100f87	0.5627369
48	0xbe8b96ea	-0.27263576
49	0x3dc3012b	0.09521707
50	0x3cce5714	0.025188006
51	0xbedef271	-0.43544343
52	0xbe9ce92a	-0.3064664
53	0x3d48ba8c	0.04900603
54	0x3dc45f35	0.09588472
55	0x3d8b48c5	0.06800989
56	0x3e60d6c9	0.21956934
57	0x3e82e5d6	0.25565976
58	0xbe3fae22	-0.1871877
59	0xbdc4af50	-0.09603751
60	0xbeafa0ed	-0.34302464
61	0x3d6cb35c	0.057788238
62	0xbeacd495	-0.33755937
63	0x3de1b91e	0.110216364
64	0x3f1efed4	0.62107587
65	0x3ee127b2	0.43975598
66	0x3e1eb027	0.15496884
67	0xbed3af26	-0.41344565
68	0xbe7b799c	-0.24558109
69	0xbe7179d8	-0.23581636
70	0xbdc449c3	-0.095843814
71	0xbe52348c	-0.20527858
72	0xbded70af	-0.11593758
73	0x3d9011ff	0.070346825
74	0x3df93ecc	0.12170181
75	0xbf15fc62	-0.5858823
76	0x3d1582d2	0.036501713
77	0x3f2ddf09	0.6791845
78	0x3e49e228	0.19715178
79	0x3e3ce343	0.18446068
80	0x3dc04d83	0.09389784
81	0x3dd56a95	0.104207195
82	0x3ec27cfa	0.37985975
83	0xbe2ad8d7	-0.1668428
84	0xbdf44e6e	-0.11929022
85	0xbe60b15e	-0.2194266
86	0xbe00bc48	-0.12571824
87	0xbdc1e38e	-0.09467231
88	0x3d6793f5	0.056537587
89	0x3e88a8ad	0.2669119
90	0x3bfd5d96	0.0077321036
91	0x3eefdf72	0.46850163
92	0xbe1e9ddb	-0.15489905
93	0x3c532a53	0.012888509
94	0x3db74558	0.08948773
95	0xbd151a41	-0.03640199
96	0xbec29103	-0.3800126
97	0x3e94161e	0.28923124
98	0xbdb3f6d5	-0.08787314
99	0x3eff97d2	0.49920517
100	0x3dc42384	0.095770866
101	0xbe9c9a71	-0.3058658
102	0x3e41da4c	0.1893093
103	0xbeb00626	-0.3437969
104	0x3dcc7174	0.09982577
105	0xbf382ee8	-0.71946573
106	0xbd0bbca0	-0.034115434
107	0xbd02bf57	-0.031920757
108	0x3e455b10	0.19273019
109	0xbd279dc0	-0.040921926
110	0x3dc9a52c	0.09845957
111	0xbeb5cf2d	-0.35509625
112	0xbd078928	-0.033089787
113	0x3d740916	0.059578978
114	0xba598b5d	-0.000829866
115	0xbe5e4b71	-0.21708466
116	0x3e7deda7	0.24797688
117	0xba2901dd	-0.0006447116
118	0x3dbcc19c	0.092166156
119	0xbd17e96f	-0.037087854
120	0x3ef2052e	0.47269577
121	0xbeec23c5	-0.4612104
122	0x3e723a4c	0.23655051
123	0x3dcc9beb	0.099906765
124	0xbf14f987	-0.5819325
125	0xbe833e96	-0.25633687
126	0x3e86ee26	0.26353568
127	0x3d844ed8	0.06460351
128	0x3d2896ba	0.04115937
129	0xbd93e644	-0.07221654
130	0x3e02574f	0.12728618
131	0x3e098c7c	0.13432497
132	0x3bda957f	0.0066706534
133	0x3dcf9851	0.10136474
134	0x3b4e7a64	0.0031506056
135	0x3e3adf0f	0.18249153
136	0xbc7f8c4b	-0.015597413
137	0xbdb3c1c9	-0.08777196
138	0x3da47c18	0.080314815
139	0xbc8d261b	-0.017230084
140	0xbd6269fa	-0.05527685
141	0xbd5323b1	-0.05154771
142	0x3e2230a8	0.15838873
143	0x3d80180d	0.06254587
144	0xbd96acdf	-0.07357191
145	0x3d0e05ec	0.034673616
146	0xbd2259ad	-0.039636303
147	0xbc83fe29	-0.016112404
148	0xbc2b98bb	-0.0104734255
149	0xbd0a8b01	-0.03382397
150	0x3e4041b4	0.18775064
151	0xbda10902	-0.07863046
152	0x3cbe7fd3	0.02325431
153	0x3e29d19b	0.16583864
154	0x3e529752	0.20565537
155	0x3da97349	0.08273942
156	0x3f999001	1.1997072
157	0xbdd4f55c	-0.10398361
158	0x3e0afe42	0.13573554
159	0x3d27b9bf	0.040948626
160	0x3fa316f2	1.2741377
161	0x3f115804	0.56774926
162	0x3e2b4167	0.16724168
163	0x3ded9502	0.116006866
164	0x3e13393d	0.14377303
165	0x3e5e2a92	0.21695927
166	0xbb6ebca8	-0.0036428366
167	0x3e11adce	0.14226457
168	0x3e880545	0.2656652
169	0x3e077374	0.13227636
170	0x3d9d671c	0.07685682
171	0x3e2d8ad3	0.16947488
172	0x3d21d44a	0.039509095
173	0x3dbb8390	0.09155953
174	0x3e001643	0.12508492
175	0xbd7efa21	-0.06225026
176	0x3e25b68d	0.16182919
177	0xbdacbc64	-0.0843437
178	0x3d1a6c81	0.037701134
179	0x3e14794c	0.14499396
180	0x3e9d143a	0.30679494
181	0x3d8cfdf3	0.068843745
182	0xbce048f9	-0.027378546
183	0xbdef34d4	-0.11679998
184	0x3e2dc07a	0.16967955
185	0x3d3c6510	0.04599482
186	0x3c8c393a	0.017117132
187	0x3d81f352	0.06345238
188	0x3df9ea5a	0.12202902
189	0x3e2add1a	0.16685906
190	0x3f9383d1	1.1524602
191	0xbd3104c7	-0.043217447
192	0x3e87af30	0.26500845
193	0x3dc6ca98	0.097066104
194	0xbd5ff389	-0.054675613
195	0x3b884b08	0.004159335
196	0x3e8bf538	0.27335525
197	0xbda8cda0	-0.08242345
198	0xbce7ab7c	-0.028280012
199	0xbe46873e	-0.19387528
200	0xbdbb5272	-0.091465846
201	0x3d3f548d	0.046711493
202	0x3d995bac	0.07488188
203	0xbe11a562	-0.14223245
204	0xbd021577	-0.03175875
205	0x3d0a6d27	0.033795502
206	0x3db5ac73	0.08870783
207	0xbec27c69	-0.37985542
208	0x3dde3334	0.1084961
209	0x3dae4aa2	0.08510329
210	0x3ebf1fe6	0.37329024
211	0xbdf17423	-0.117897294
212	0xbc3e4810	-0.011613861
213	0x3cae98c7	0.021313084
214	0xbd59822e	-0.053102665
215	0xbcdd59e6	-0.027020406
216	0x3c899832	0.016796205
217	0x3d9d657f	0.076853745
218	0x3d8056fd	0.06266592
219	0x3ceb42e2	0.028718416
220	0x3d3c00a1	0.045899037
221	0x3dbb0203	0.09131243
222	0x3d728d99	0.05921707
223	0x3d51d502	0.05122853
224	0xbe18f202	-0.14936069
225	0x3e854008	0.26025414
226	0xbe3cb2ad	-0.18427534
227	0xbd4d78ca	-0.05016402
228	0xbe90a873	-0.28253517
229	0x3e8991e7	0.26869127
230	0xbea95c02	-0.3307801
231	0x3deb3264	0.114842206
232	0xbd952618	-0.072826564
233	0x3e0ed336	0.13947758
234	0x3db08860	0.086197615
235	0x3e4e943a	0.20173731
236	0x3dfd0eaa	0.123563126
237	0x3d146758	0.03623137
238	0xbe07beb4	-0.13256341
239	0xbe062155	-0.13098653
240	0xbe16648d	-0.14686795
241	0xbc4f17fe	-0.0126399975
242	0xbc81834e	-0.015809681
243	0xbb3cfe1b	-0.0028837982
244	0x3d493ef7	0.049132314
245	0x3d40aa3b	0.047037344
246	0x3dd12629	0.102123566
247	0xbcf9e40f	-0.030504255
248	0x3e3c7134	0.18402559
249	0xbdbfe45c	-0.09369728
250	0xbe4183b9	-0.18897904
251	0xbd6eec7f	-0.05833101
252	0x3e5ca7c6	0.21548375
253	0x3cc07469	0.023493009
254	0x3e911719	0.28337935
255	0xbd430dad	-0.047620464

fc3.bias f4 [50]
0	0x3e207ba1	0.1567216
1	0x3eea007f	0.45703503
2	0xbd4f8700	-0.050665855
3	0x3e778a15	0.24173768
4	0x3e2beded	0.1678998
5	0x3c2fdefc	0.010734316
6	0x3e9aa089	0.30200604
7	0x3d688a7c	0.056772694
8	0x3d6ad47c	0.057331547
9	0xbc4317e6	-0.011907553
10	0x3daaada7	0.08333903
11	0x3ddc040c	0.107429594
12	0x3c97c329	0.018525677
13	0x3dabfdf2	0.083980456
14	0x3e555b2d	0.20835562
15	0x3eb34701	0.3501511
16	0x3e871c78	0.26388907
17	0x3c6ad5b8	0.014333181
18	0x3e5953b8	0.21223342
19	0x3dd7fadf	0.10545897
20	0x3e3ecceb	0.18632858
21	0x3e14581c	0.14486736
22	0xbd2e0073	-0.042480897
23	0x3d1bdc14	0.03805168
24	0x3d3f6633	0.046728324
25	0x3e4d4b84	0.20048338
26	0x3e742bdd	0.23844858
27	0x3db63535	0.08896867
28	0x3e9111b6	0.28333825
29	0x3e315b8f	0.17320083
30	0x3e469b53	0.19395189
31	0x3cc1178c	0.023570798
32	0x3df70f23	0.12063434
33	0xbd2478db	-0.04015432
34	0x3ebd7582	0.37003714
35	0xbd162cb1	-0.036663715
36	0xbdb6055f	-0.08887743
37	0x3dfa24f3	0.12214079
38	0xbde11f55	-0.10992304
39	0x3cf3ac18	0.029745147
40	0xbd3442a2	-0.04400886
41	0x3ccbc2fb	0.024873247
42	0x3e6f2883	0.23355298
43	0x3e8760ef	0.26441142
44	0x3dd1ed12	0.10250296
45	0x3e60843f	0.21925448
46	0x3cdaf1bb	0.026726594
47	0xbcad9b73	-0.021192288
48	0x3e67b907	0.22629176
49	0x3ce67314	0.028131045
