Temp Folder/ones/model_params.pt (torch, 73943 bytes, 6 tensors)

fc1.weight f4 [128, 50]
0.0036455756 0.434608 0.17177136 -0.46678087 -0.4432532 0.10658775 0.4657452 -0.07523378
0.33382124 0.1037782 -0.4281279 0.20959805 0.17666098 0.78283733 0.2763801 0.17154723
0.13531885 -0.054879364 -0.36095804 0.20783341 0.4709841 0.12635918 0.08929646 -0.008050481
0.02472991 0.08727978 0.19772832 -0.58305717 -0.48920006 0.479296 0.53345156 -0.04818619
0.059520576 0.56654197 -0.7660339 0.11453474 0.18228218 0.11132778 0.07832426 0.07916648
0.15469386 -0.034619085 -0.27949154 0.45925888 -0.11940984 -0.038395084 -0.81798583 -0.038747784
0.20045146 0.14822645 -0.1351548 -0.17292832 -0.11340438 -0.15866303 -0.29648218 0.05362954
0.052185465 -0.09168251 -0.13928543 0.19232763 -0.1431913 0.28312394 0.18684055 -0.081754684
0.086130045 0.005663662 0.24505739 -0.043848444 -0.21658206 -0.12422418 0.19385259 0.14230956
0.05489389 -0.053867944 0.08962686 0.10016485 -0.12449794 0.051893327 -0.3047213 -0.07665823
-0.4308533 0.14933021 0.14330608 0.22728842 -0.27797928 0.1950884 -0.07463735 0.013012392
0.06104397 0.037373766 0.20560555 0.15330441 0.21473399 -0.20259309 0.0072640767 0.21260023
0.049674276 -0.083266966 -0.10653907 -0.06756713 0.12301523 0.23185879 0.08191115 0.6932919
-0.29938307 0.037477683 -0.23614053 0.0060363365 0.09582967 -0.17466304 0.013468476 0.26142845
0.055276357 0.07108771 0.38925806 0.13150246 -0.06989017 0.08067639 -0.7964006 0.023062805
0.28202826 -0.14348537 0.026280748 0.042424813 -0.12527643 0.042924855 -0.25865096 -0.3087405
0.45518866 0.19473925 0.5606338 -0.151301 0.02460522 -0.10694406 -0.44351712 -0.09206892
-0.026113145 0.108341426 -0.28188598 0.016424553 -0.11108187 0.065989405 -0.53786534 -0.10063191
-0.0045393733 -0.3482591 0.9836451 -0.12614444 0.42959055 0.2149459 0.24611811 0.09657523
0.035208322 -0.26768568 -0.0372528 0.025456468 -0.04589405 -0.056156784 0.12525669 -0.05310046
-0.17775333 0.28570017 -0.0908885 -0.16719675 0.09483444 -0.12371609 -0.10087342 0.2623931
-0.2141798 -0.03802321 0.36638495 0.17742974 -0.07914151 0.09969317 0.006141548 -0.029368771
-0.005737669 -0.17234439 0.25714722 0.24676336 -0.31511363 -0.108969025 -0.2118969 -0.2541162
0.15637875 0.104985476 -0.022263026 -0.0019677982 -0.19903754 -0.1692772 0.016955988 -0.14173166
0.16581248 -0.14372133 0.012950643 0.2769643 -0.23221232 0.031632002 0.09428766 -0.108062446
0.014165608 -0.14025126 -0.03867976 -0.07539243 -0.3084219 0.068400785 -0.17977457 0.21560031
-0.20956603 -0.044478707 -0.14599381 -0.14998513 -0.08384003 0.63299114 0.5494673 0.15489225
0.40792918 0.28174075 -0.09718294 0.377554 -0.45427856 0.037375245 0.082719184 0.03053605
-0.00015628219 0.17305872 0.03455092 -0.122487865 -0.32155415 -0.06293902 -0.17079099 -0.041192934
-0.106675506 -0.3028611 0.48028913 0.1195505 0.13304733 0.16041522 0.019749254 -0.044241387
0.08782635 0.023913862 -0.054895867 -0.38978675 -0.020113083 0.37833133 0.50192803 -0.11300549
-0.0023476502 0.14635538 -0.33023256 0.3629576 0.13422608 -0.35866135 0.60507524 0.064346224
00000000: 9cea 6e3b f184 de3e d5e4 2f3e e7fd eebe
00000010: 15f2 e2be ae4a da3d 2876 ee3e 2b14 9abd
00000020: 9eea aa3e aa89 d43d 9533 dbbe dfa0 563e
00000030: 9ee6 343e 0768 483f b181 8d3e 14aa 2f3e
00000040: 0691 0a3e 2fc9 60bd 7ecf b8be 48d2 543e
00000050: d424 f13e 4d64 013e 10e1 b63d 2ae6 03bc
00000060: 6196 ca3c bebf b23d 4b79 4a3e 3c43 15bf
00000070: 6e78 fabe 4966 f53e 4890 083f e25e 45bd
00000080: d9cb 733d e508 113f cc1a 44bf 3191 ea3d
00000090: 2ea8 3a3e d2ff e33d 7868 a03d 0922 a23d
000000a0: 1168 1e3e becc 0dbd 8419 8fbe fb23 eb3e
000000b0: 258d f4bd 2a44 1dbd 8567 51bf ffb5 1ebd
000000c0: 2643 4d3e adc8 173e 0566 0abe 1f14 31be
000000d0: 8e40 e8bd 9078 22be 83cc 97be a6aa 5b3d
000000e0: 6dc0 553d 0ac4 bbbd d7a0 0ebe 89f1 443e
000000f0: bda0 12be 9ff5 903e 2153 3f3e 006f a7bd
00000100: f364 b03d 3e96 b93b 53f0 7a3e 6d9a 33bd
00000110: b0c7 5dbe 3f69 febd 4b81 463e 99b9 113e
00000120: 6ad8 603d a2a4 5cbd 4a8e b73d 3b23 cd3d
00000130: c7f8 febd 198e 543d 6e04 9cbe fdfe 9cbd
00000140: ce98 dcbe 05ea 183e d4be 123e 4cbe 683e
00000150: 4d53 8ebe 41c5 473e 78db 98bd ee31 553c
00000160: 3e09 7a3d 3c15 193d 438a 523e d5fb 1c3e
00000170: 3ae3 5b3e 9074 4fbe 7e07 ee3b e0b3 593e
00000180: 4177 4b3d df87 aabd 2831 dabd a360 8abd
00000190: 69ef fb3d 646c 6d3e 08c1 a73d 947b 313f
000001a0: bd48 99be 3382 193d d3ce 71be 76cc c53b
000001b0: 5942 c43d deda 32be e2aa 5c3c f3d9 853e
000001c0: 7669 623d 6f96 913d d54c c73e 95a8 063e
000001d0: 9422 8fbd aa39 a53d e9e0 4bbf 35ee bc3c
000001e0: 0266 903e d4ed 12be b94a d73c a4c5 2d3d
000001f0: 7748 00be f9d1 2f3d e66d 84be 3c13 9ebe
00000200: 7d0e e93e ba69 473e b285 0f3f a6ee 1abe
00000210: e390 c93c 7d05 dbbd ad14 e3be a18e bcbd
00000220: 3ceb d5bc 1ce2 dd3d 5c53 90be c98c 863c
00000230: e47e e3bd 7425 873d 8bb1 09bf 1a18 cebd
00000240: 06bf 94bb 044f b2be 2ad0 7b3f 022c 01be
00000250: 4bf3 db3e c71a 5c3e 6306 7c3e 3cc9 c53d
00000260: 9a36 103d 190e 89be 6496 18bd 158a d03c
00000270: 66fb 3bbd a804 66bd 4a43 003e de7f 59bd
00000280: f804 36be 4b47 923e c023 babd a035 2bbe
00000290: 8f38 c23d dd5e fdbd b996 cebd 6358 863e
000002a0: f351 5bbe 3abe 1bbd cf96 bb3e 24b0 353e
000002b0: f214 a2bd ef2b cc3d 0a3f c93b c796 f0bc
000002c0: 0e03 bcbb 0c7b 30be cda8 833e 89af 7c3e
000002d0: 9356 a1be 272b dfbd 80fb 58be 851b 82be
000002e0: c021 203e a002 d73d f360 b6bc 2df6 00bb
000002f0: 7fd0 4bbe 0157 2dbe 49e7 8a3c 1b22 11be
00000300: bfca 293e af2b 13be ef2e 543c 44ce 8d3e
00000310: 11c9 6dbe 8f90 013d e419 c13d d84f ddbd
00000320: de16 683c 079e 0fbe ab6e 1ebd 5967 9abd
00000330: 7ae9 9dbe b615 8c3d d316 38be 54c6 5c3e
00000340: 7a98 56be 4e2f 36bd 677f 15be b495 19be
00000350: 52b4 abbd b50b 223f e4a9 0c3f 139c 1e3e
00000360: 18dc d03e 5340 903e d907 c7bd c24e c13e
00000370: 3397 e8be c916 193d ad68 a93d bd26 fa3c
00000380: aedf 23b9 4e36 313e 4485 0d3d ebda fabd
00000390: bfa2 a4be 2ce6 80bd d5e3 2ebe ecb9 28bd
000003a0: b078 dabd 9c10 9bbe 75e8 f53e e4d6 f43d
000003b0: 8f3d 083e e343 243e 30c9 a13c 7536 35bd
000003c0: 4dde b33d 01e7 c33c 7dda 60bd 2192 c7be
000003d0: 31c4 a4bc a5b4 c13e 5b7e 003f 6c6f e7bd
000003e0: 09db 19bb 2fde 153e 3e14 a9be 94d5 b93e
000003f0: 9072 093e 76a2 b7be 36e6 1a3f f4c7 833d

fc1.bias f4 [128]
0.15484212 0.50230336 0.3168265 0.52327424 0.4622661 -0.02722729 -0.22727649 -0.13252476
0.11725645 0.01475308 -0.39167172 0.43059164 0.61582184 -0.23249176 -0.26179072 0.17669919
-0.3950819 0.43524146 -0.12302839 0.5492587 0.65757143 0.034988128 0.5076571 -0.31213537
-0.46333092 -0.12116392 0.40214816 -0.38617167 0.15042052 0.02085613 -0.40069383 -0.12517348
0.46762958 0.18566063 0.6041751 -0.49356094 -0.3566996 -0.006835863 0.48014948 -0.2783726
-0.35204285 -0.30359766 0.53062916 -0.2162365 -0.3865848 0.34891766 -0.5538088 0.33502048
-0.3441057 -0.26182297 0.5228949 -0.20162144 -0.42631334 0.044262756 0.20752242 -0.45743278
0.5245707 -0.40455592 0.52155775 -0.2513725 0.45890033 0.36900884 -0.12166858 0.1751461
0.13170889 0.50479436 0.45428443 -0.27144712 -0.32700312 -0.24739961 -0.27416942 0.5039455
-0.2088067 -0.08166837 -0.12565517 0.18685181 0.5959289 0.48835292 -0.26574144 -0.4228738
0.61477786 0.29038438 0.5557699 -0.116755195 0.42393044 -0.25991938 0.39117616 -0.3594884
0.44195157 0.024263687 -0.43215454 -0.34177575 0.16783595 0.29001692 0.26939818 -0.0903145
0.03052391 0.35444307 -0.010812844 0.07574133 -0.07414122 0.09108698 -0.017675487 0.41349438
-0.21606237 0.4935802 -0.34924236 0.2788769 0.3047586 0.16967086 0.2733181 0.23283821
-0.11836025 0.2054594 0.5823973 -0.2549507 0.22267446 -0.041818622 0.19923705 0.48479375
0.0037220572 -0.3327378 -0.16088498 -0.08775018 -0.02656435 -0.20445663 -0.20456879 -0.011346713
00000000: ef8e 1e3e f496 003f 1537 a23e 4df5 053f
00000010: 24ae ec3e c40b dfbc 2bbb 68be 92b4 07be
00000020: 2624 f03d e7b6 713c 3289 c8be 8276 dc3e
00000030: 80a6 1d3f 5212 6ebe 6f09 86be a2f0 343e
00000040: 2d48 cabe f8d7 de3e 4ff6 fbbd 389c 0c3f
00000050: 9a56 283f b64f 0f3d d1f5 013f 35d0 9fbe
00000060: b639 edbe ca24 f8bd 5de6 cd3e 4bb8 c5be
00000070: d607 1a3e 7ada aa3c be27 cdbe 7a2d 00be
00000080: 256d ef3e d21d 3e3e 38ab 1a3f 05b4 fcbe
00000090: 54a1 b6be 60ff dfbb 27d6 f53e da86 8ebe
000000a0: f63e b4be 2771 9bbe 50d7 073f 1a6d 5dbe
000000b0: 71ee c5be 56a5 b23e 6ac6 0dbf ce87 ab3e
000000c0: 9f2e b0be a90d 86be 71dc 053f da75 4ebe
000000d0: be45 dabe dd4c 353d c280 543e a134 eabe
000000e0: 444a 063f f421 cfbe cf84 053f e5b3 80be
000000f0: fcf4 ea3e baee bc3e 602d f9bd 8059 333e
00000100: b2de 063e 343a 013f f897 e83e 1efb 8abe
00000110: f46c a7be 5356 7dbe ef5f 8cbe 9302 013f
00000120: 6cd1 55be bf41 a7bd c0ab 00be 1556 3f3e
00000130: cc8e 183f 6509 fa3e 430f 88be ea82 d8be
00000140: 1562 1d3f 43ad 943e f046 0e3f 591d efbd
00000150: 690d d93e 2714 85be 3e48 c83e dd0e b8be
00000160: 7a47 e23e a4c4 c63c 5c43 ddbe 3bfd aebe
00000170: 30dd 2b3e 197d 943e 8fee 893e cff6 b8bd
00000180: 470d fa3c 9079 b53e 5b28 31bc 451e 9b3d
00000190: 5ad7 97bd d08b ba3d 2fcc 90bc 89b5 d33e
000001a0: 743f 5dbe 8bb6 fc3e e5cf b2be f4c8 8e3e
000001b0: 5209 9c3e 33be 2d3e 5af0 8b3e 246d 6e3e
000001c0: dc66 f2bd f363 523e fd17 153f e688 82be
000001d0: c604 643e 014a 2bbd cc04 4c3e e336 f83e
000001e0: c2ed 733b 9c5c aabe 08bf 24be 5eb6 b3bd
000001f0: 7b9d d9bc 145d 51be 7b7a 51be 90e7 39bc

fc2.weight f4 [64, 128]
-0.09137161 -0.042254455 -0.007958139 -0.026324162 0.06412276 0.065655835 -0.09381736 -0.039530538
-0.03395317 -0.035803385 0.01767171 -0.018223291 0.068125896 0.04598987 -0.039382562 -0.011334547
-0.06886606 0.024698576 -0.08200876 -0.0020790389 -0.04357196 0.07163872 -0.032665946 -0.010486795
0.052410908 -0.0734839 -0.012286882 0.036405805 0.008811807 -0.018572329 -0.010399949 -0.03072772
0.014999957 -0.089071736 0.06858911 -0.011771448 0.0017751373 -0.07868594 -0.056879133 -0.07292278
-0.019782776 0.001773609 -0.06788455 0.030795706 -0.02750266 -0.067495964 -0.029556027 0.054052815
-0.024163423 0.023327315 -0.06877639 -0.0932319 -0.022026893 0.017256932 -0.015581609 -0.044603217
-0.028313365 0.05724392 -0.097400516 0.042478602 -0.06972421 -0.007070788 -0.08076144 0.0026038766
0.07332896 -0.02622768 -0.01498816 -0.054091882 -0.09374685 0.033859048 -0.095827095 0.0641809
0.07161517 0.043796908 -0.08458894 -0.014313371 -0.043144498 0.006154015 -0.010371164 0.053012896
-0.07380145 -0.01561907 0.04540896 0.049364503 -0.06411733 0.055373527 -0.037145678 -0.048038855
-0.0006236225 -0.0059556086 0.048235178 -0.05226752 -0.043951835 -0.075383656 -0.078691214 0.0354495
-0.0124159055 -0.08384587 -0.026117317 0.049838215 -0.009533087 -0.046653327 -0.03083487 0.033300094
-0.09365235 -0.00029418682 0.022306222 0.05112952 0.007710555 -0.013399777 0.012197464 0.07383144
-0.0058205444 0.036471248 0.058681205 0.05989242 -0.07007069 -0.053535856 0.035552815 -0.031687666
-0.033747982 0.072192274 0.036150157 0.014540346 -0.050593108 -0.046748288 -0.025376067 0.02773422
-0.07299308 0.18735816 0.5610238 0.3952497 0.104032695 0.075907566 0.10124327 -0.04466046
0.1558033 0.3448539 0.37123588 -0.18876545 -0.7056791 -0.10256762 0.07649232 0.33473733
0.10742217 0.09089818 0.13693896 0.07759233 0.35442176 -0.19692993 0.584426 0.07526688
-0.24197489 0.10932855 -0.57285535 -0.42271623 -0.1759533 0.15679899 0.069161244 -0.055442926
0.91160256 0.24998985 -0.2758525 -0.35716182 0.5309059 0.17475459 0.54525506 -0.41068202
-0.4746015 0.15837891 0.10514536 -0.13073903 -0.12419922 0.8354943 -0.119484454 -0.3166486
-0.09238114 -0.41829455 0.4497717 -0.3004681 -0.15791418 0.19753361 0.034704626 0.079246975
0.21053468 -0.09216832 0.25299108 0.2662166 0.15593453 0.05459382 0.13016 0.23268759
-0.1688904 0.6750555 0.2686974 0.12351998 0.21339458 0.25588447 -0.5358071 -0.116720356
-0.35305423 -0.054814115 0.37954065 0.18767059 -0.508105 0.26689163 0.2128107 -0.16656095
0.031816043 -0.0007100415 -0.7246523 0.60589266 0.50030965 -0.05691001 -0.6594245 -0.16711405
0.5832904 -0.10978581 0.43450242 0.2691752 0.025063714 0.16648117 -0.07844722 0.0372161
0.039094683 -0.22116822 0.11125808 0.078182995 -0.082967475 -0.16498683 0.03625996 0.5967848
-0.021811016 0.4071128 0.15281582 0.2523369 0.06929228 0.6532231 0.24987936 -0.044704597
0.010399362 0.50646085 0.1600098 -0.46939924 0.5896271 -0.08949114 0.19383 0.20677893
0.22881167 -0.08751494 -0.0024676044 -0.048868805 -0.108897984 0.16806267 -0.040394004 0.022841737
00000000: 0a21 bbbd 0213 2dbd db62 02bc c5a5 d7bc
00000010: cb52 833d 9176 863d 5123 c0bd c6ea 21bd
00000020: 7b12 0bbd 92a6 12bd 43c4 903c 0349 95bc
00000030: 9785 8b3d e05f 3c3d 9c4f 21bd 89b4 39bc
00000040: a609 8dbd ab54 ca3c 35f4 a7bd 7c40 08bb
00000050: 8378 32bd 52b7 923d bacc 05bd ced0 2bbc
00000060: d2ac 563d ba7e 96bd eb4e 49bc 411e 153d
00000070: 665f 103c ff24 98bc 8c64 2abc b3b8 fbbc
00000080: 61c2 753c 3e6b b6bd 7378 8c3d 08dd 40bc
00000090: b9ab e83a 1826 a1bd 18fa 68bd 8a58 95bd
000000a0: 7d0f a2bc 7178 e83a 0e07 8bbd 4747 fc3c
000000b0: 424d e1bc 533b 8abd 7b1f f2bc 7c66 5d3d
000000c0: 5ff2 c5bc ed18 bf3c a3da 8cbd 5ef0 bebd
000000d0: be71 b4bc 695e 8d3c 014a 7fbc ddb1 36bd
000000e0: 6ef1 e7bc 9a78 6a3d ec79 c7bd 0bfe 2d3d
000000f0: 91cb 8ebd 12b2 e7bb 4166 a5bd cda5 2a3b
00000100: 7e2d 963d 6edb d6bc e690 75bc 738f 5dbd
00000110: 59fe bfbd c9af 0a3d ff40 c4bd 4771 833d
00000120: f9aa 923d 6364 333d f73c adbd a182 6abc
00000130: 49b8 30bd 9fa7 c93b d1eb 29bc 0d24 593d
00000140: 3725 97bd 21e7 7fbc bffe 393d 6f32 4a3d
00000150: f24f 83bd 5acf 623d 1126 18bd 64c4 44bd
00000160: 997a 23ba 4427 c3bb 4092 453d 7816 56bd
00000170: d706 34bd bf62 9abd dc28 a1bd 7f33 113d
00000180: 156c 4bbc 62b7 abbd fcf3 d5bc 2823 4c3d
00000190: aa30 1cbc 8f17 3fbd 6999 fcbc ae65 083d
000001a0: cecc bfbd 163d 9ab9 8abb b63c 306d 513d
000001b0: d3a8 fc3b bd8a 5bbc dfd7 473c f034 973d
000001c0: 44ba bebb e062 153d b45b 703d c151 753d
000001d0: 3981 8fbd 6a48 5bbd d49f 113d edca 01bd
000001e0: 533b 0abd 8bd9 933d 3012 143d a23a 6e3c
000001f0: b83a 4fbd 227b 3fbd 78e1 cfbc e032 e33c
00000200: 657d 95bd d1da 3f3e 419f 0f3f 2b5e ca3e
00000210: 180f d53d 6d75 9b3d a258 cf3d e3ed 36bd
00000220: e68a 1f3e b190 b03e a112 be3e bb4b 41be
00000230: 63a7 34bf f90e d2bd 01a8 9c3d b162 ab3e
00000240: 2800 dc3d d328 ba3d ba39 0c3e bae8 9e3d
00000250: c576 b53e 00a8 49be f19c 153f 8625 9a3d
00000260: 44c8 77be a6e7 df3d a6a6 12bf 436e d8be
00000270: 1a2d 34be ea8f 203e 69a4 8d3d 1f18 63bd
00000280: c95e 693f 57fd 7f3e 8a3c 8dbe eadd b6be
00000290: 73e9 073f def2 323e d695 0b3f ea44 d2be
000002a0: f8fe f2be 152e 223e 7356 d73d 74e0 05be
000002b0: 295c febd f4e2 553f 44b4 f4bd c41f a2be
000002c0: 5332 bdbd b42a d6be 7a48 e63e f4d6 99be
000002d0: 41b4 21be 4046 4a3e 7026 0e3d 3d4c a23d
000002e0: 6796 573e bfc2 bcbd 0c88 813e 8b4d 883e
000002f0: 4dad 1f3e c59d 5f3d aa48 053e a845 6e3e
00000300: 9bf1 2cbe 70d0 2c3f b592 893e 0bf8 fc3d
00000310: 1c84 5a3e 4a03 833e a72a 09bf 150b efbd
00000320: 86c3 b4be c484 60bd 2753 c23e b82c 403e
00000330: 2b13 02bf 05a6 883e 0ceb 593e f48e 2abe
00000340: 8a51 023d 1422 3aba d082 39bf c81b 1b3f
00000350: 4b14 003f 781a 69bd 0bd0 28bf f21f 2bbe
00000360: 8552 153f 62d7 e0bd 1a77 de3e 55d1 893e
00000370: 6b52 cd3c 0a7a 2a3e f0a8 a0bd e96f 183d
00000380: bf21 203d ec79 62be 47db e33d 681e a03d
00000390: daea a9bd 4ff2 28be 5385 143d e3c6 183f
000003a0: 04ad b2bc 1771 d03e c07b 1c3e 4d32 813e
000003b0: 1ce9 8d3d a139 273f 60e0 7f3e 2b1c 37bd
000003c0: 1662 2a3c 6ba7 013f 9cd9 233e 1955 f0be
000003d0: cdf1 163f 2147 b7bd 5f7b 463e dbbd 533e
000003e0: 9b4d 6a3e 083b b3bd 88b7 21bb a82a 48bd
000003f0: e805 dfbd 9f18 2c3e 2f74 25bd 981e bb3c

fc2.bias f4 [64]
0.061543413 0.15645704 -0.015118156 0.016671296 0.12503435 0.17362984 -0.02098059 -0.0815624
-0.03695181 -0.058950216 -0.09307616 0.06722999 0.20245966 0.21170913 0.3742141 0.36668456
-0.2361757 0.14628313 0.1562218 -0.07600839 0.17223026 -0.022891527 -0.1393318 0.027848784
0.42363295 -0.0049057812 -0.03800099 -0.21046801 0.005681979 -0.25361592 0.014137391 0.034954775
0.24729949 0.07025687 0.3827788 0.11712712 0.03292689 -0.30015138 -0.0013916768 -0.16173945
0.017642606 0.18964568 0.33180308 0.23399194 0.344226 -0.38302213 -0.20030417 0.05363288
0.013101443 0.013362948 -0.13326743 -0.104898684 0.3494004 -0.18749438 0.054419387 -0.09802272
0.20967081 -0.17298084 0.07220659 -0.019132772 0.07055756 0.39895815 0.36140272 0.04733822
00000000: f214 7c3d 4636 203e 24b2 77bc 3e92 883c
00000010: 0109 003e 05cc 313e 7cdf abbc 300a a7bd
00000020: c85a 17bd c875 71bd b79e bebd e1af 893d
00000030: 9651 4f3e 47ca 583e fe98 bf3e 14be bb3e
00000040: 0bd8 71be 3fcb 153e 9cf8 1f3e 49aa 9bbd
00000050: 215d 303e 0387 bbbc ffac 0ebe 2223 e43c
00000060: 6be6 d83e adc0 a0bb eda6 1bbd ed84 57be
00000070: e52f ba3b f2d9 81be 84a0 673c bd2c 0f3d
00000080: 143c 7d3e d5e2 8f3d 95fb c33e 58e0 ef3d
00000090: 59de 063d 71ad 99be ed68 b6ba 079f 25be
000000a0: 3a87 903c 7a32 423e 18e2 a93e 959b 6f3e
000000b0: 643e b03e 7a1b c4be 891c 4dbe 27ae 5b3d
000000c0: 6fa7 563c 44f0 5a3c 4277 08be 1fd5 d6bd
000000d0: 9ce4 b23e 87fe 3fbe dde6 5e3d 23c0 c8bd
000000e0: f2b3 563e e421 31be 0ce1 933d 55bc 9cbc
000000f0: 7b80 903d 3e44 cc3e c709 b93e b9e5 413d

fc3.weight f4 [50, 64]
0.047163505 -0.057746496 0.046599828 -0.033970155 -0.12798856 -0.4877552 0.021911964 -0.050866783
0.051561385 0.03350467 0.07836574 0.11541601 -0.34626827 0.64993167 0.40527618 0.14838734
0.14117374 -0.359472 -0.3685317 -0.05598195 0.8019477 0.33237538 -0.3572481 -0.1971116
0.33210146 -0.397755 -0.26831803 0.41629878 0.23641074 -0.38315937 0.36330038 0.042123046
0.36913577 -0.06145956 0.10477288 -0.38586363 -0.19405085 0.20958391 0.0053029284 -0.23842698
-0.018609967 0.38993436 -0.5687162 -0.08252694 0.18479776 -0.25106174 0.017780233 0.08834956
-0.0709276 -0.031179504 -0.4926538 0.15038686 -0.42735237 -0.09981128 -0.059328884 -0.28090876
-0.017152797 0.51556706 0.05923183 0.10729617 -0.04406453 -0.4486465 0.65816456 -0.19108711
-0.13019335 0.19614701 0.3881208 0.008082198 -0.9051526 0.26295117 0.02367486 -0.07585536
-0.12829494 0.012951104 0.02662674 -0.019833894 0.45328775 -0.48729885 0.07277869 0.058005612
-0.30035856 -0.2549396 -0.2732994 -0.09873448 -0.37664375 -0.33074257 -0.17861934 -0.14749251
-0.18223354 -0.18868825 -0.25884888 -0.11471695 -0.42948827 -0.34357014 0.19507596 -0.060026225
0.31771448 -0.050077926 0.021291455 -0.28980106 0.30928633 -0.09759468 0.0028764044 -0.41551518
-0.107845046 0.057667132 -0.046928048 0.2098694 0.10073741 0.029827014 0.361489 -0.0016140414
-0.07918393 0.023968868 0.35560885 0.09962597 0.22492671 -0.043149162 -0.09734407 -0.18117088
0.01666322 0.41490197 0.0572997 0.18526657 -0.0746254 0.46734676 0.112369224 0.032233633
-0.016789468 0.15792723 0.09625996 0.11003907 0.0218337 0.045022637 0.12446877 0.03230993
-0.07974144 -0.09060045 -0.007377684 -0.043243717 0.13606384 0.12479716 -0.029958071 -0.04496475
0.0991061 0.2182525 0.061060656 0.11347094 0.40322813 0.16603364 0.16252819 -0.044295184
-0.08616481 0.0039679655 0.16287644 0.21624213 -0.009990471 0.06924269 0.17996958 0.05171979
-0.010992963 0.03321979 0.006017871 0.10640422 0.10259962 -0.037805762 -0.021684617 0.01196244
-0.0035323012 0.10820676 0.015994802 0.019476742 0.09805229 0.11724303 0.1403056 0.07385388
0.047118776 -0.059898607 -0.056395337 0.051966425 0.18548049 -0.011387109 -0.06719006 0.021102017
0.069995925 0.26001537 0.114711426 0.11944314 -0.08829447 -0.031487737 0.13891508 0.13791558
-0.058389254 -0.22860172 -0.03757609 0.07714886 0.04823035 -0.22896709 0.120124035 0.09022032
0.011064308 -0.06914264 -0.04634428 -0.10521542 0.23319979 0.28635865 0.1945752 0.697573
-0.34379417 -0.44042286 -0.084471375 0.11263889 -0.28543204 0.56115824 -0.012766085 0.19421078
0.30136713 -0.086525925 -0.23967884 0.21809006 0.044917323 0.21615227 -0.37623075 -0.032872066
-0.01124918 -0.0070767775 0.38814405 0.20919566 0.06846737 -0.33086014 -0.08390587 -0.17084073
0.11255771 -0.4969582 -0.26443052 0.48778278 0.3286554 -0.28158462 -0.3024056 -0.12457242
0.109480865 -0.108214416 0.06510109 -0.05809034 0.28204843 0.009150065 0.10222411 -0.27068576
0.19521941 -0.18409526 -0.059105646 -0.1515527 0.09733486 0.21343414 0.31046602 0.20001891
00000000: 852e 413d 9787 6cbd 76df 3e3d 4a24 0bbd
00000010: 6f0f 03be 0dbb f9be b880 b33c b059 50bd
00000020: 0832 533d 313c 093d 387e a03d 3b5f ec3d
00000030: 134a b1be ec61 263f 5c80 cf3e daf2 173e
00000040: d98f 103e b70c b8be 30b0 bcbe 544d 65bd
00000050: 724c 4d3f 1b2d aa3e 39e9 b6be a0d7 49be
00000060: 3409 aa3e 8ba6 cbbe fb60 89be 1d25 d53e
00000070: a815 723e 772d c4be 8202 ba3e 3789 2c3d
00000080: 5dff bc3e 05bd 7bbd 2a93 d63d eb8f c5be
00000090: 44b5 46be 2a9d 563e 30c4 ad3b 3426 74be
000000a0: ee73 98bc 7aa5 c73e 6397 11bf e203 a9bd
000000b0: a03b 3d3e 2a8b 80be daa7 913c 9df0 b43d
000000c0: 7d42 91bd 296c ffbc 1e3d fcbe 03ff 193e
000000d0: eecd dabe db69 ccbd d802 73bd 46d3 8fbe
000000e0: 0684 8cbc 34fc 033f 139d 723d 18be db3d
000000f0: 027d 34bd feb4 e5be 797d 283f 57ac 43be
00000100: 6851 05be c3da 483e c5b7 c63e 326b 043c
00000110: 15b8 67bf 89a1 863e c8f1 c13c 0e5a 9bbd
00000120: c05f 03be de30 543c 5220 da3c b17a a2bc
00000130: 5515 e83e 3c7f f9be fe0c 953d 4b97 6d3d
00000140: 99c8 99be 7187 82be e6ed 8bbe 4e35 cabd
00000150: 73d7 c0be 1757 a9be fde7 36be 4708 17be
00000160: 6e9b 3abe 7e37 41be d787 84be b8f0 eabd
00000170: e3e5 dbbe 6de8 afbe fec1 473e 0fde 75bd
00000180: 79ab a23e 831e 4dbd 6b6b ae3c ce60 94be
00000190: c75a 9e3e b8df c7bd 0f82 3c3b 68be d4be
000001a0: dddd dcbd 5f34 6c3d a037 40bd 01e8 563e
000001b0: 6a4f ce3d c857 f43c 1615 b93e 3e8e d3ba
000001c0: 2f2b a2bd 5c5a c43c 5d12 b63e b308 cc3d
000001d0: 3053 663e 2dbd 30bd 545c c7bd dc84 39be
000001e0: 4e81 883c 086e d43e 17b3 6a3d 85b6 3d3e
000001f0: 34d5 98bd 1348 ef3e d621 e63d 6a07 043d
00000200: 118a 89bc adb7 213e f123 c53d 2a5c e13d
00000210: 96dc b23c a869 383d 7ce9 fe3d 6b57 043d
00000220: 7b4f a3bd bb8c b9bd 80c0 f1bb 5320 31bd
00000230: 5254 0b3e a795 ff3d a16a f5bc f52c 38bd
00000240: 24f8 ca3d 957d 5f3e bd1a 7a3d 7463 e83d
00000250: eb73 ce3e b904 2a3e ca6d 263e de6e 35bd
00000260: 2d77 b0bd b505 823b 15c9 263e 946e 5d3e
00000270: 13af 23bc 1dcf 8d3d f249 383e 21d8 533d
00000280: d41b 34bc 7911 083d 9031 c53b 75ea d93d
00000290: c01f d23d 37da 1abd f0a3 b1bc 1cfe 433c
000002a0: 2e7e 67bb 819b dd3d 8807 833c b08d 9f3c
000002b0: a4cf c83d 1d1d f03d 45ac 0f3e b440 973d
000002c0: 9eff 403d 3e58 75bd ccfe 66bd bfda 543d
000002d0: 99ee 3d3e ff90 3abc f19a 89bd 23de ac3c
000002e0: 065a 8f3d bc20 853e d3ed ea3d 9b9e f43d
000002f0: bbd3 b4bd 49f9 00bd c13f 0e3e be39 0d3e
00000300: 9229 6fbd 9216 6abe 63e9 19bd 3900 9e3d
00000310: 308d 453d 5976 6abe 9703 f63d 6ec5 b83d
00000320: 1247 353c a89a 8dbd 80d3 3dbd 2f7b d7bd
00000330: edcb 6e3e 9a9d 923e b93e 473e 2594 323f
00000340: ca05 b0be 1b7f e1be 54ff acbd 38af e63d
00000350: 2624 92be 11a8 0f3f d728 51bc 31df 463e
00000360: cb4c 9a3e 8134 b1bd 5f6e 75be 0053 5f3e
00000370: 3afb 373d 0557 5d3e 51a1 c0be dca4 06bd
00000380: 7b4e 38bc 50e4 e7bb d1ba c63e 6337 563e
00000390: 9f38 8c3d 8066 a9be d7d6 abbd dff0 2ebe
000003a0: a884 e63d 4e71 febe 7063 87be aabe f93e
000003b0: 8545 a83e dc2b 90be e8d4 9abe d31f ffbd
000003c0: 8137 e03d 859f ddbd b853 853d 23f0 6dbd
000003d0: a768 903e 27ea 153c e05a d13d 5397 8abe
000003e0: 99e7 473e 7883 3cbe c318 72bd a230 1bbe
000003f0: 8057 c73d 7b8e 5a3e 67f5 9e3e c2d1 4c3e

fc3.bias f4 [50]
0.061742444 0.016917786 0.10846513 0.2832327 0.11618076 0.13962822 0.034796897 -0.007353459
0.36848518 0.09093022 0.19164793 0.10938798 0.11843551 0.12492634 0.051867332 0.10428151
0.11075846 -0.19302393 0.08995175 0.019994734 0.11617794 0.11295728 -0.11401359 -0.06641325
-0.023462124 -0.0033085225 0.106247954 0.059430283 0.2705938 0.2602396 0.15020697 -0.05397893
0.007048543 -0.051850397 0.21434535 0.034972515 -0.07584132 0.00043450858 0.12663087 -0.0906464
0.046398256 -0.03771427 0.16894598 0.31133357 0.0012263664 0.2817128 0.18163866 0.011133827
0.22252606 0.117544524
00000000: a5e5 7c3d 2b97 8a3c f722 de3d e003 913e
00000010: 2ef0 ed3d b3fa 0e3e 3187 0e3d 49f5 f0bb
00000020: 17aa bc3e a039 ba3d 5b3f 443e ce06 e03d
00000030: 518e f23d 62d9 ff3d d772 543d 8b91 d53d
00000040: 55d5 e23d 11a8 45be a038 b83d ffcb a33c
00000050: b3ee ed3d 2556 e73d f57f e9bd ac03 88bd
00000060: a433 c0bc ccd3 58bb 8798 d93d 2b6d 733d
00000070: 458b 8a3e 203e 853e dbcf 193e 0319 5dbd
00000080: 77f7 e63b 1561 54bd 597d 5b3e 573f 0f3d
00000090: b252 9bbd c1ce e339 86ab 013e d2a4 b9bd
000000a0: 190c 3e3d 477a 1abd 2d00 2d3e 1d67 9f3e
000000b0: 07be a03a a93c 903e 7cff 393e a86a 363c
000000c0: dfdd 633e 2fbb f03d
